output/model/model_CnnText.pth (torch, 3675 bytes, 5 tensors)

weight f4 [16, 2]
000000 d2 45 dc be b0 12 1b bf 45 83 83 3f ca ea 27 3f
       -0.4302202 -0.6057539 1.0274435 0.65592635
000010 f1 cf 86 be 64 17 9b bf 3e 23 53 bf 06 90 35 40
       -0.26330522 -1.2116513 -0.8247565 2.8369155
000020 78 eb 0c 3f da 53 d3 bf 54 de c3 3f 47 36 45 bf
       0.55046797 -1.6509964 1.5302224 -0.77035946
000030 21 f2 9e bf 22 75 80 3f 0c 89 02 40 33 59 f5 bf
       -1.2417642 1.0035746 2.0396147 -1.9167846
000040 7e c3 8f bf 68 21 16 40 04 4b 81 bf 24 03 f0 3e
       -1.1231534 2.345789 -1.0101018 0.46877396
000050 ee 0e bd 3f 00 9d 55 bf 28 8a 1e c0 c6 c2 61 bf
       1.4770181 -0.8344269 -2.4771824 -0.88187826
000060 48 ab 0a bf d3 6e 0b 3d 1b 50 b2 3d 3e 96 bf 3f
       -0.54167604 0.034041237 0.08706685 1.4967725
000070 f0 74 5c 3f c4 2f 64 bf 20 45 0c 3f 49 8d 83 3f
       0.8611593 -0.89135385 0.54792976 1.0277492

weight f4 [3, 1, 2, 2]
000000 80 28 2f bf 3a af 87 3f a2 b8 e2 bf 4b 89 34 3f
       -0.68421173 1.060035 -1.7712595 0.7052199
000010 e7 c3 78 3f fd e2 3a bf 5c 00 eb 3e 91 2f 9c bf
       0.97173923 -0.73002607 0.45898712 -1.2202016
000020 06 c5 36 bf 00 b1 2c be 36 9e 75 3e 19 7e 92 bd
       -0.71394384 -0.16864395 0.23986134 -0.071529575

bias f4 [3]
000000 ae fd a1 3f ba 5a 6a 3e 3a 74 11 bf
       1.2655542 0.22886172 -0.5681797

weight f4 [2, 3]
000000 68 be 99 3f be a9 72 bf d4 88 80 bf 2f b4 56 bf
       1.2011232 -0.94790256 -1.0041757 -0.8386869
000010 2a b3 df 3f 66 d4 9a 3f
       1.7476552 1.2096069

bias f4 [2]
000000 01 8e 21 3f 55 46 5f 3e
       0.63107306 0.21804173
